…
'entropy_loss_scale': 0.0, 'value_loss_scale': 1.0, 'kl_threshold': 0.008, 'rewards_shaper': None, 'time_limit_bootstrap': False, 'mixed_precision': False, 'experiment': {'directory': '/workspace/isaac_forklift/examples/01_train/logs/skrl/forklift', 'experiment_name': '_test1_PPO', 'write_interval': 40, 'checkpoint_interval': 400, 'wandb': True}, 'timesteps': 1000000, 'headless': False, 'disable_progressbar': False, 'close_environment_at_exit': True, 'environment_info': 'episode', 'stochastic_evaluation': False, 'policy': {'encoder': ConvHeightmapEncoder(
  (encoder_layers): ModuleList(
    (0): Conv2d(1, 8, kernel_size=(3, 3), stride=(1, 1), padding=(1, 1), bias=False)
    (1): BatchNorm2d(8, eps=1e-05, momentum=0.1, affine=True, track_running_stats=True)
    (2): LeakyReLU(negative_slope=0.01, inplace=True)
    (3): Conv2d(8, 8, kernel_size=(3, 3), stride=(1, 1), padding=(1, 1), bias=False)
    (4): BatchNorm2d(8, eps=1e-05, momentum=0.1, affine=True, track_running_stats=True)
    (5): LeakyReLU(negative_slope=0.01, inplace=True)
    (6): MaxPool2d(kernel_size=2, stride=2, padding=0, dilation=1, ceil_mode=False)
    (7): Conv2d(8, 16, kernel_size=(3, 3), stride=(1, 1), padding=(1, 1), bias=False)
    (8): BatchNorm2d(16, eps=1e-05, momentum=0.1, affine=True, track_running_stats=True)
    (9): LeakyReLU(negative_slope=0.01, inplace=True)
    (10): Conv2d(16, 16, kernel_size=(3, 3), stride=(1, 1), padding=(1, 1), bias=False)
    (11): BatchNorm2d(16, eps=1e-05, momentum=0.1, affine=True, track_running_stats=True)
    (12): LeakyReLU(negative_slope=0.01, inplace=True)
    (13): MaxPool2d(kernel_size=2, stride=2, padding=0, dilation=1, ceil_mode=False)
    (14): Conv2d(16, 32, kernel_size=(3, 3), stride=(1, 1), padding=(1, 1), bias=False)
    (15): BatchNorm2d(32, eps=1e-05, momentum=0.1, affine=True, track_running_stats=True)
    (16): LeakyReLU(negative_slope=0.01, inplace=True)
    (17): Conv2d(32, 32, kernel_size=(3, 3), stride=(1, 1), padding=(1, 1), bias=False)
    (18): BatchNorm2d(32, eps=1e-05, momentum=0.1, affine=True, track_running_stats=True)
    (19): LeakyReLU(negative_slope=0.01, inplace=True)
    (20): MaxPool2d(kernel_size=2, stride=2, padding=0, dilation=1, ceil_mode=False)
    (21): Conv2d(32, 64, kernel_size=(3, 3), stride=(1, 1), padding=(1, 1), bias=False)
    (22): BatchNorm2d(64, eps=1e-05, momentum=0.1, affine=True, track_running_stats=True)
    (23): LeakyReLU(negative_slope=0.01, inplace=True)
    (24): Conv2d(64, 64, kernel_size=(3, 3), stride=(1, 1), padding=(1, 1), bias=False)
    (25): BatchNorm2d(64, eps=1e-05, momentum=0.1, affine=True, track_running_stats=True)
    (26): LeakyReLU(negative_slope=0.01, inplace=True)
    (27): MaxPool2d(kernel_size=2, stride=2, padding=0, dilation=1, ceil_mode=False)
  )
  (mlps): ModuleList(
    (0): Linear(in_features=0, out_features=80, bias=True)
    (1): LeakyReLU(negative_slope=0.01, inplace=True)
    (2): Linear(in_features=80, out_features=60, bias=True)
    (3): LeakyReLU(negative_slope=0.01, inplace=True)
  )
), 'mlp': ModuleList(
  (0): Linear(in_features=65, out_features=256, bias=True)
  (1): LeakyReLU(negative_slope=0.01, inplace=True)
  (2): Linear(in_features=256, out_features=160, bias=True)
  (3): LeakyReLU(negative_slope=0.01, inplace=True)
  (4): Linear(in_features=160, out_features=128, bias=True)
  (5): LeakyReLU(negative_slope=0.01, inplace=True)
  (6): Linear(in_features=128, out_features=2, bias=True)
  (7): Tanh()
)}, 'value': {'encoder': ConvHeightmapEncoder(
  (encoder_layers): ModuleList(
    (0): Conv2d(1, 8, kernel_size=(3, 3), stride=(1, 1), padding=(1, 1), bias=False)
    (1): BatchNorm2d(8, eps=1e-05, momentum=0.1, affine=True, track_running_stats=True)
    (2): LeakyReLU(negative_slope=0.01, inplace=True)
    (3): Conv2d(8, 8, kernel_size=(3, 3), stride=(1, 1), padding=(1, 1), bias=False)
    (4): BatchNorm2d(8, eps=1e-05, momentum=0.1, affine=True, track_running_stats=True)
    (5): LeakyReLU(negative_slope=0.01, inplace=True)
    (6): MaxPool2d(kernel_size=2, stride=2, padding=0, dilation=1, ceil_mode=False)
    (7): Conv2d(8, 16, kernel_size=(3, 3), stride=(1, 1), padding=(1, 1), bias=False)
    (8): BatchNorm2d(16, eps=1e-05, momentum=0.1, affine=True, track_running_stats=True)
    (9): LeakyReLU(negative_slope=0.01, inplace=True)
    (10): Conv2d(16, 16, kernel_size=(3, 3), stride=(1, 1), padding=(1, 1), bias=False)
    (11): BatchNorm2d(16, eps=1e-05, momentum=0.1, affine=True, track_running_stats=True)
    (12): LeakyReLU(negative_slope=0.01, inplace=True)
    (13): MaxPool2d(kernel_size=2, stride=2, padding=0, dilation=1, ceil_mode=False)
    (14): Conv2d(16, 32, kernel_size=(3, 3), stride=(1, 1), padding=(1, 1), bias=False)
    (15): BatchNorm2d(32, eps=1e-05, momentum=0.1, affine=True, track_running_stats=True)
    (16): LeakyReLU(negative_slope=0.01, inplace=True)
    (17): Conv2d(32, 32, kernel_size=(3, 3), stride=(1, 1), padding=(1, 1), bias=False)
    (18): BatchNorm2d(32, eps=1e-05, momentum=0.1, affine=True, track_running_stats=True)
    (19): LeakyReLU(negative_slope=0.01, inplace=True)
    (20): MaxPool2d(kernel_size=2, stride=2, padding=0, dilation=1, ceil_mode=False)
    (21): Conv2d(32, 64, kernel_size=(3, 3), stride=(1, 1), padding=(1, 1), bias=False)
    (22): BatchNorm2d(64, eps=1e-05, momentum=0.1, affine=True, track_running_stats=True)
    (23): LeakyReLU(negative_slope=0.01, inplace=True)
    (24): Conv2d(64, 64, kernel_size=(3, 3), stride=(1, 1), padding=(1, 1), bias=False)
    (25): BatchNorm2d(64, eps=1e-05, momentum=0.1, affine=True, track_running_stats=True)
    (26): LeakyReLU(negative_slope=0.01, inplace=True)
    (27): MaxPool2d(kernel_size=2, stride=2, padding=0, dilation=1, ceil_mode=False)
  )
  (mlps): ModuleList(
    (0): Linear(in_features=0, out_features=80, bias=True)
    (1): LeakyReLU(negative_slope=0.01, inplace=True)
    (2): Linear(in_features=80, out_features=60, bias=True)
    (3): LeakyReLU(negative_slope=0.01, inplace=True)
  )
), 'mlp': ModuleList(
  (0): Linear(in_features=65, out_features=256, bias=True)
  (1): LeakyReLU(negative_slope=0.01, inplace=True)
  (2): Linear(in_features=256, out_features=160, bias=True)
  (3): LeakyReLU(negative_slope=0.01, inplace=True)
  (4): Linear(in_features=160, out_features=128, bias=True)
  (5): LeakyReLU(negative_slope=0.01, inplace=True)
  (6): Linear(in_features=128, out_features=1, bias=True)
)}}
2025-04-14 05:07:01,739 INFO    MainThread:549785 [wandb_init.py:init():548] starting backend
2025-04-14 05:07:01,739 INFO    MainThread:549785 [backend.py:_multiprocessing_setup():97] multiprocessing start_methods=fork,spawn,forkserver, using: spawn
2025-04-14 05:07:01,746 INFO    MainThread:549785 [backend.py:ensure_launched():217] starting backend process...
…
